…
***************File Reading Completed , below are the details*****************
-------Sample Length :  97808
----------Sample Splitted into Train and Validation with below details
No. of Train Samples: 78246
No. of Validation Samples: 19562
......Start Training........
____________________________________________________________________________________________________
Layer (type)                     Output Shape          Param #     Connected to                     
====================================================================================================
cropping2d_1 (Cropping2D)        (None, 65, 320, 3)    0           cropping2d_input_1[0][0]         
____________________________________________________________________________________________________
lambda_1 (Lambda)                (None, 65, 320, 3)    0           cropping2d_1[0][0]               
____________________________________________________________________________________________________
convolution2d_1 (Convolution2D)  (None, 31, 158, 24)   1824        lambda_1[0][0]                   
____________________________________________________________________________________________________
dropout_1 (Dropout)              (None, 31, 158, 24)   0           convolution2d_1[0][0]            
____________________________________________________________________________________________________
convolution2d_2 (Convolution2D)  (None, 14, 77, 36)    21636       dropout_1[0][0]                  
____________________________________________________________________________________________________
dropout_2 (Dropout)              (None, 14, 77, 36)    0           convolution2d_2[0][0]            
____________________________________________________________________________________________________
convolution2d_3 (Convolution2D)  (None, 5, 37, 48)     43248       dropout_2[0][0]                  
____________________________________________________________________________________________________
convolution2d_4 (Convolution2D)  (None, 3, 35, 64)     27712       convolution2d_3[0][0]            
____________________________________________________________________________________________________
convolution2d_5 (Convolution2D)  (None, 1, 33, 64)     36928       convolution2d_4[0][0]            
____________________________________________________________________________________________________
flatten_1 (Flatten)              (None, 2112)          0           convolution2d_5[0][0]            
____________________________________________________________________________________________________
dense_1 (Dense)                  (None, 100)           211300      flatten_1[0][0]                  
____________________________________________________________________________________________________
dropout_3 (Dropout)              (None, 100)           0           dense_1[0][0]                    
____________________________________________________________________________________________________
dense_2 (Dense)                  (None, 50)            5050        dropout_3[0][0]                  
____________________________________________________________________________________________________
dense_3 (Dense)                  (None, 10)            510         dense_2[0][0]                    
____________________________________________________________________________________________________
dense_4 (Dense)                  (None, 1)             11          dense_3[0][0]                    
====================================================================================================
Total params: 348,219
Trainable params: 348,219
Non-trainable params: 0
____________________________________________________________________________________________________
Epoch 1/30
  128/78246 [..............................] - ETA: 1398s - loss: 0.02
…
